sentimentpl/trained_models/latest.pth (torch, 806303 bytes, 5 tensors)

1.weight f4 [256, 768]
000000 a0 c6 ef bc a0 e0 be bb 37 6a 3f bd 27 2c 25 bd
       -0.029269516 -0.005825117 -0.046732154 -0.04032531
000010 87 93 a5 3c a8 28 91 bc 43 ee ee bc 37 2b f4 3c
       0.020211948 -0.017719582 -0.029166346 0.029805763
000020 0c 29 24 bc d3 eb 43 bd 6b e5 c1 3c e1 8f c1 3b
       -0.010019552 -0.04783232 0.023668965 0.0059070443
000030 8a 72 75 bc 0d fe 26 bd 18 a0 1a 3c 7a 15 a0 3c
       -0.0149809215 -0.040769625 0.009437583 0.01954149
000040 a9 9a d6 3b 97 a2 51 bd 32 7e 81 3c ed e7 a6 bc
       0.0065491986 -0.05118045 0.015807245 -0.020374263
000050 6e 4b d9 bb c6 7a 83 bd c0 2a 70 3c 66 43 de bb
       -0.0066313064 -0.064199015 0.01465863 -0.006782937
000060 a7 73 61 3b e8 03 2c bc bf 6a b1 bc db 4c 87 bc
       0.003440121 -0.010498978 -0.021657346 -0.01651614
000070 ee 71 b8 bb 1f 49 88 3c 2b 20 39 bc db 70 e5 bb
       -0.005628816 0.01663643 -0.011299173 -0.007001979
000080 a0 54 08 bc 41 52 4e bc cf ea b5 bc 47 72 14 bd
       -0.008320957 -0.012592853 -0.022206692 -0.036241796
000090 9a 31 0d bc 72 28 2c 3c 36 56 09 bc c4 0d b2 3c
       -0.008617783 0.01050769 -0.008382371 0.02173508
0000a0 c2 61 df 3a c0 45 a6 3c 90 0f 82 bc 79 3f 1f bd
       0.0017042684 0.020296931 -0.015876561 -0.03887889
0000b0 5f 52 ac 3c 1e a3 91 3d 01 ce fb bc 3f e2 d7 bb
       0.021035371 0.0711119 -0.030737879 -0.00658825
0000c0 3c c3 d7 3b 11 f5 f7 3c b9 85 0b bc 2c 34 cf 3c
       0.006584553 0.030268224 -0.008515769 0.025293432
0000d0 d0 b3 9a 3c 51 f3 25 bd 11 97 6e bc 1c 55 ee bb
       0.01888457 -0.040515248 -0.014562384 -0.0072733294
0000e0 d7 7c 08 3c 1e 55 dd 3a d1 1a 63 bd 74 be 23 bd
       0.008330545 0.0016886329 -0.055445496 -0.039976552
0000f0 9f 92 b4 bb 94 aa 9b bb d0 a8 42 bc df ee 73 3c
       -0.0055106427 -0.004750559 -0.011881068 0.014888494
000100 e2 b3 61 3d 30 1a 2c bc 64 29 1a bc ed 71 10 3d
       0.05510319 -0.01050429 -0.009409282 0.035264898
000110 91 24 26 3d e2 51 3f 3a 3f 71 ad 3c e8 20 bc 3c
       0.040562216 0.0007298273 0.021172164 0.02296491
000120 4d 95 72 3a 53 13 64 3c 14 80 91 3c ac 49 62 3d
       0.0009253815 0.013920623 0.017761268 0.05524604
000130 db bd 0b bb a6 38 d4 bc cb 63 ba 3c cc 82 5a bc
       -0.002132288 -0.025905918 0.022752663 -0.0133368485
000140 57 ad b0 3c 62 db c2 bb f3 b5 18 3c ca 4a ec bc
       0.02156703 -0.0059465626 0.009320724 -0.028844256
000150 55 5c 52 bc 2e af c4 bc ee 54 ba bc 69 27 38 3c
       -0.0128393965 -0.024009313 -0.022745576 0.011239865
000160 f6 50 c6 3c 4e a7 7f 3c 35 64 94 3b 77 75 b6 bc
       0.024208527 0.015603853 0.004528547 -0.022272808
000170 99 33 15 3c 86 85 b0 3c 7e 54 e2 bc 6c 8f 0d 3b
       0.00910654 0.021548044 -0.02762818 0.0021600379
000180 73 d9 2e 3d ab c0 b2 3c c7 f5 bc bb 11 8b 05 bc
       0.042687844 0.021820387 -0.0057666036 -0.008150832
000190 a6 ea 28 3d a6 1c c4 bc 82 53 77 3b 52 c8 b4 3c
       0.041239403 -0.023939442 0.0037738984 0.022068176
0001a0 9d 71 e9 3c 88 42 d3 3b 28 25 66 37 74 42 85 bd
       0.028496558 0.00644714 1.3717719e-05 -0.065068156
0001b0 a3 9a ad 39 e0 ab 6c 3b ef 80 e6 ba de c8 0d 3d
       0.00033112345 0.0036113188 -0.0017586033 0.03461539
0001c0 57 16 90 ba 26 98 2b 3d 3f 0e b5 ba 41 b2 cc bc
       -0.0010992986 0.041893147 -0.001381345 -0.024987342
0001d0 42 af 2c 3c ee ad 27 3c 16 46 a2 3c f3 13 cf 3c
       0.010539832 0.010234339 0.01980881 0.025278067
0001e0 8a f2 93 3b 2b e7 a2 3c e0 a8 8b bc a3 66 2e bd
       0.004514997 0.01988562 -0.0170483 -0.04257835
0001f0 5e 4b a9 bc e8 f8 c8 3c 7f bc ef bb 53 25 0a 3d
       -0.02066582 0.02453275 -0.0073161717 0.033727
000200 87 04 f0 3b 6b b9 18 3d ef 0d 60 3c ef 5c 8a 3b
       0.0073247585 0.037286203 0.013675197 0.0042225043
000210 ba de 77 b9 63 2e f2 3c d8 49 0b 3c e2 55 ed bc
       -0.00023638728 0.029563135 0.008501492 -0.028971616
000220 46 75 30 bc 96 49 dc 3c 27 2a 23 3c 35 f5 04 3d
       -0.010770148 0.026890557 0.00995878 0.03246041
000230 66 f1 40 3d 54 1f a3 bc 2f 70 ad 3a 22 6c cf 3c
       0.047105215 -0.0199124 0.0013232286 0.025320116
000240 92 d5 b1 bc 88 c4 2b 3c f5 36 ce 3c 03 15 11 bc
       -0.021708284 0.010483868 0.02517269 -0.008855107
000250 bc d8 f7 3b 59 67 37 3b 85 b3 06 bd d3 87 ad bc
       0.0075636785 0.0027985184 -0.032886047 -0.02118293
000260 62 be 1f 3d 11 1e 07 bc 6b cb a6 bc 71 22 b8 3c
       0.038999923 -0.0082469145 -0.02036067 0.02247736
000270 f5 c7 89 3c da 44 14 bd 6a 68 92 3b 8b 28 2e 3c
       0.01681898 -0.036198474 0.0044680135 0.010629783
000280 1d 47 33 3c 56 07 a4 3c c0 1c 92 bc 92 3c d7 bb
       0.010942248 0.02002303 -0.017835975 -0.0065685
000290 8c 2d 30 3c 95 d2 8e 3c 90 49 d7 3c 84 c8 86 3d
       0.010753047 0.017434398 0.026280195 0.06581214
0002a0 f4 a5 06 3d 89 f7 ee 3c fc 23 a7 3c 21 a4 e5 bb
       0.03287311 0.029170768 0.0204029 -0.007008091
0002b0 75 9c ee bb a4 4c 8e 3c f9 a3 0b 3d e3 5c dd bc
       -0.0072818347 0.01737053 0.034091923 -0.02702183
0002c0 21 b6 87 bc bc 97 80 bc 1c 2f d2 3c 31 2b eb bb
       -0.016566338 -0.015697353 0.02565723 -0.0071767797
0002d0 37 6b 62 bc a0 58 cf ba 90 de 69 bc 60 87 25 3c
       -0.013819507 -0.0015819259 -0.014274254 0.010103077
0002e0 ac 13 68 3c 8d 27 28 bc 31 2a 1f 3c 25 b8 55 bc
       0.014164846 -0.010263336 0.009714649 -0.013044392
0002f0 16 68 d4 3c 0e 14 98 3c 5d f2 1a bd c2 b7 da 3c
       0.025928538 0.01856425 -0.037828792 0.02669895
000300 a9 3b 06 3d 91 2b 11 3d 9a 45 a8 3b d8 58 ed bb
       0.03277174 0.03544194 0.0051352503 -0.007243257
000310 f5 c5 e4 3c 65 fc bd 3c 2d 55 e8 3b 8f 4a 23 3d
       0.027926425 0.02319164 0.007090232 0.039866026
000320 f0 0c a6 3c 17 79 22 bc 50 2a 92 bc e2 6e 91 bb
       0.020269841 -0.009916565 -0.017842442 -0.004438267
000330 a8 be ae bc 81 d7 ae bc 34 e5 fc bc 07 22 36 bd
       -0.021331146 -0.021342995 -0.030871011 -0.044466045
000340 db 63 e6 bc dc 2b 41 bc f5 81 2a bc 04 04 e6 bb
       -0.028123787 -0.011790242 -0.010406961 -0.0070195217
000350 be eb 84 bc f4 67 7e 3d 74 7a 7d bd 3f 5d 68 3b
       -0.016225692 0.062110856 -0.06188436 0.003545597
000360 08 bf 84 bc 94 5a 5d 3c 8a cf 1c bd bd 96 e7 3c
       -0.016204372 0.013510365 -0.038283862 0.02827012
000370 00 07 3b 3b aa 98 03 bd 00 52 18 3d 0a dc c7 3b
       0.0028538108 -0.032128014 0.037187576 0.0060992287
000380 eb b3 08 bc c7 6c 2a bc 98 8a 9d 3c 91 09 e1 bb
       -0.008343677 -0.010401911 0.019231126 -0.0068675955
000390 2a bb 87 3c 21 b5 2c 3d b5 78 43 3d f2 8e 46 3d
       0.016568739 0.042164925 0.047722537 0.048476167
0003a0 db 0e 16 bd ba 71 fc bb 82 e1 52 3c 3b ed 87 3c
       -0.03663526 -0.007703987 0.012871148 0.016592612
0003b0 47 9e 88 bc 36 0e 4f bb 73 20 7f bc 34 3a 6e bb
       -0.016677035 -0.0031594164 -0.015571701 -0.003635061
0003c0 23 51 03 bb e4 50 a2 3c 61 56 8f bd c1 9a 38 3d
       -0.0020037375 0.019813962 -0.06998897 0.04506946
0003d0 6c 70 d3 3c 8a f6 8a bc 1f de 6d 3d d5 bb f2 3c
       0.025810443 -0.016963262 0.05807316 0.02963058
0003e0 f0 ac 33 bc f3 7f e6 bc 95 42 3c bc b1 ca ac 3b
       -0.0109665245 -0.028137183 -0.011490484 0.005273186
0003f0 f7 fe b9 bb be 0e 92 3c 44 2e 47 3c 61 81 00 3c
       -0.005676146 0.017829295 0.012157027 0.007843346

1.bias f4 [256]
000000 b2 6a 2f bd af 7b c8 bd 71 db f3 bd e4 18 02 bd
       -0.042826362 -0.09789216 -0.119070895 -0.03176202
000010 30 9c 8e bd 1e 03 af bc ad 91 6b bd 24 ad 63 bd
       -0.06963384 -0.021363791 -0.057511974 -0.05558504
000020 0c d3 eb bd 0b d3 a4 3a 51 1d cb bd 1a bf ff bd
       -0.11514863 0.0012575103 -0.09917701 -0.124876216
000030 da 85 23 be 3b 5e 84 bd aa 0e 89 3c b3 9e 87 bd
       -0.15969029 -0.064632855 0.016730625 -0.06622066
000040 65 04 b3 bd 0a 45 c3 bd 39 6b 04 3b 1a 68 a5 bd
       -0.087410726 -0.095346525 0.0020205511 -0.080764964
000050 82 4a e6 bb 5a 33 85 bd 37 58 df bd cc f8 86 bd
       -0.007027925 -0.06503935 -0.109054975 -0.06590423
000060 55 4d 16 bd 04 65 22 3b 5c 30 8a bd 83 e4 04 bd
       -0.036694843 0.0024779448 -0.06747505 -0.03244449
000070 33 85 2b bd 59 94 9a 3c 4e a5 95 bd d9 46 e6 bd
       -0.041875076 0.018869566 -0.0730692 -0.11243982
000080 44 a8 00 3d f7 39 20 be b5 5c 87 bc db ac 09 bd
       0.03141047 -0.15647112 -0.016523698 -0.033612113
000090 16 fe 22 bd a4 ad b0 bd c8 b5 a4 bd 62 df c5 bd
       -0.039793096 -0.08626869 -0.080424845 -0.096617475
0000a0 ac 5f f5 3c e4 99 fd bd 3c 7c 9e 3c 3f a4 2a bd
       0.029952846 -0.12382868 0.019346349 -0.041660544
0000b0 f4 34 ac bd 9c 00 b0 bd ec 62 40 bd a5 02 8b bd
       -0.084085375 -0.08593866 -0.04696934 -0.06787614
0000c0 97 42 7e bd 99 1d 18 be fa ca be bd 69 5c ce bc
       -0.062075224 -0.1485504 -0.093160585 -0.025190549
0000d0 89 54 99 bd fe f8 af bd fa ed 3f bd 5b d4 15 be
       -0.07486827 -0.08592413 -0.04685781 -0.14631788
0000e0 c2 ad f4 bd 28 51 9a bd ac 22 de 3c 40 1e 8e bd
       -0.11947204 -0.075350106 0.027116142 -0.069393635
0000f0 52 00 ea bc 4b 4a f4 bd 42 82 f8 bc a1 4f 38 be
       -0.028564606 -0.11928233 -0.03033555 -0.17999126
000100 b1 e6 b4 bd f0 7d ae bd 60 fd f7 bc 1c f1 5e bc
       -0.088330634 -0.085201144 -0.030272186 -0.01360729
000110 d0 57 99 bd 7d d9 bb 3d ea 47 99 bd 95 1c 24 bd
       -0.07487452 0.09172342 -0.0748442 -0.04006632
000120 30 34 58 bd af 8b 29 bd d3 52 93 3c ca 3e 15 3d
       -0.052784145 -0.04139298 0.01798383 0.036436833
000130 6d c2 19 bd c8 60 08 bd 24 c1 f6 bb 47 de 7b bd
       -0.037538934 -0.033295423 -0.0075303484 -0.061491277
000140 21 7a 10 be b3 4b 87 bd d4 4c ee bd 68 a8 0b bb
       -0.14109088 -0.06606235 -0.116357476 -0.0021310095
000150 14 31 4a bd 80 e3 d0 bd 32 df c6 bd 32 23 00 be
       -0.04936321 -0.10199642 -0.0971054 -0.12513426
000160 fb 9b f0 bd f1 a3 f2 bd 05 f8 12 bd 5c 53 5c bd
       -0.11748501 -0.118476756 -0.03588106 -0.053790435
000170 a3 a6 d5 bd 93 56 04 be ae 77 43 bd 70 2f f6 bd
       -0.10432174 -0.1292365 -0.047721557 -0.12020767
000180 14 f9 ba bc d4 d1 a8 bd a9 d4 4b 3d 03 c0 02 be
       -0.022823848 -0.082431465 0.049763355 -0.12768559
000190 b5 d6 0a be c9 b6 31 bd 91 7f 2d be 3e 71 4f bc
       -0.13558467 -0.043387208 -0.16943194 -0.012661276
0001a0 bc fb a4 bd 3f c0 e2 bd 1d 82 1e bd 92 07 f9 bd
       -0.08055827 -0.11071824 -0.038698304 -0.12159647
0001b0 c2 ea 6d bc 19 21 c7 bc f4 89 04 be 79 b5 15 be
       -0.014521303 -0.024307774 -0.1294325 -0.14620008
0001c0 12 0c bc bd f8 a9 00 be ea 09 3b bd 08 ca d8 bd
       -0.0918199 -0.12564838 -0.04566375 -0.105854094
0001d0 0e 15 48 3d 2e 7d 1c bd 60 89 dc bc cc 39 29 bd
       0.048848204 -0.03820532 -0.026920974 -0.041314885
0001e0 65 20 18 be b5 10 78 bd 18 04 02 3d 51 9b 2c bd
       -0.14856108 -0.060562808 0.031742185 -0.04214031
0001f0 5b e6 0f be 93 a2 d0 bd 14 5c 14 be cb 74 a7 bd
       -0.14052717 -0.101872586 -0.1448825 -0.08176573
000200 5e 62 42 bd 07 31 49 3c 74 32 8c bd 80 8b 1a bd
       -0.04745709 0.012279755 -0.06845561 -0.037730694
000210 62 6f 0c be 34 43 cf bd 60 cf dd 3d 79 0f 0f bd
       -0.13714364 -0.1012024 0.10830569 -0.034926865
000220 78 f0 19 bd cd 22 30 be c4 ab 1e be d6 0b 22 b9
       -0.037582844 -0.17200775 -0.15495211 -0.00015453933
000230 a6 f2 ae bd c4 9f 26 bd f9 46 9a 3d fa 4b c1 bd
       -0.08542375 -0.040679708 0.07533068 -0.094383195
000240 17 b5 82 bd a3 50 9b bd 39 c4 0b bd 5d e6 1c be
       -0.063821964 -0.075837396 -0.03412268 -0.15322252
000250 06 e4 df 3d 1b 19 38 bd a4 5f 33 bd ac 93 38 be
       0.10932164 -0.044945817 -0.043792382 -0.18025082
000260 03 a4 02 be 67 02 e4 bd 50 55 79 3d 26 9c 94 bc
       -0.12757878 -0.11133271 0.060872376 -0.018140864
000270 7e 64 e9 bd 91 61 66 3c ef a1 c7 bd a7 b5 a4 bd
       -0.113961205 0.014061348 -0.09747683 -0.0804246
000280 9f de 74 bd 6c 8e 8b 3c 98 f7 5c bd e7 1d 0a be
       -0.05978262 0.017035685 -0.05394706 -0.1348797
000290 80 16 df bd fe dc 35 bd 63 10 72 3c 2b bd 49 bd
       -0.108929634 -0.044400208 0.014774415 -0.04925267
0002a0 8b cd 97 bd d6 31 b3 bd a4 71 95 bd 03 9d 92 bd
       -0.07412251 -0.0874974 -0.07297066 -0.07158854
0002b0 51 7a 4b bd 63 58 c0 3d 8d 78 04 bd d0 be 08 be
       -0.049677197 0.093918584 -0.03234153 -0.13354039
0002c0 6b 3d ac bc 3a af 0d be f1 25 97 bd 81 ad ac bd
       -0.02102538 -0.13836375 -0.073802836 -0.08431531
0002d0 ce 20 83 3d 07 80 76 bc c6 ba 25 bd 24 bd 5c bd
       0.064027414 -0.015045173 -0.040461324 -0.053891316
0002e0 51 37 75 ba fe c2 f7 bc ae 06 d3 bd 71 76 99 bd
       -0.0009354251 -0.030244347 -0.103040084 -0.07493294
0002f0 a6 b5 13 be 8d 5b 90 bd 5d 8a 8d bd b0 c7 c7 3d
       -0.14424762 -0.07048712 -0.06911156 0.09754884
000300 c3 bd 53 3b 90 ca 60 bd 65 90 7d bd 93 c7 e3 bc
       0.0032309152 -0.05488068 -0.061905283 -0.027805125
000310 0a 95 09 be 2a 3a 5e bc d4 d2 ba bd c5 12 8d bb
       -0.1343576 -0.013563672 -0.091222435 -0.004305216
000320 b4 55 88 bd 6c 68 d9 bd 4b fb 84 bd 08 10 08 bd
       -0.066569716 -0.1061562 -0.06493243 -0.033218414
000330 fe d4 d2 bd 08 17 d3 bd 6c 49 20 bd f1 6a ba 3c
       -0.10294531 -0.10307127 -0.03913252 0.022756072
000340 03 e2 a6 bd 19 28 e6 3d e6 6e 80 bd c6 5e d2 bd
       -0.08148577 0.11238117 -0.06271152 -0.10271983
000350 b1 e0 6d bd df fd c2 3d e5 33 2b bc 97 18 37 bd
       -0.05807561 0.09521078 -0.010449384 -0.044701185
000360 09 1a eb bc 8b ea da bd 07 a0 6a 3b 58 f7 4e bc
       -0.028698938 -0.10689267 0.003580095 -0.0126322135
000370 ab 93 89 bd 36 6c a0 3c 80 b5 c8 bd 87 7e f8 bd
       -0.067176186 0.019582849 -0.098002434 -0.12133508
000380 ae e0 9e bd ca 4c d6 bd 80 2b c3 bc 67 62 18 be
       -0.07757698 -0.10463865 -0.023824453 -0.14881288
000390 40 c9 0c be 72 56 1f bd 91 04 01 bb f7 d8 b3 bc
       -0.13748646 -0.0389008 -0.001968656 -0.021954043
0003a0 2f b3 90 bd 50 00 81 bd 73 71 96 bd 53 8c 23 3c
       -0.070654266 -0.06298888 -0.073458575 0.009982186
0003b0 75 db 59 bd 59 0c 9a bd 46 66 b9 3d 38 45 37 bc
       -0.053187806 -0.075218864 0.0905271 -0.011185937
0003c0 a8 41 a3 bd 91 a6 a7 bd a2 6a 1e be c3 85 cc 3d
       -0.07971507 -0.08186067 -0.15470365 0.099864505
0003d0 42 b1 c1 bd ff 7e 06 be 8b 6b b7 bd 76 32 07 bc
       -0.09457637 -0.13134383 -0.08956059 -0.008251777
0003e0 5a 5a c3 bc a6 b7 cb bd 99 3b f2 3c 08 4b 3d bd
       -0.023846794 -0.099471375 0.029569434 -0.046214134
0003f0 26 6f ce bd 9d 61 10 be 4c 24 29 bd d5 2f 72 bd
       -0.10079794 -0.14099737 -0.04129438 -0.059127647

3.weight f4 [16, 256]
000000 ec f2 1e bd 90 d1 89 be 6e c9 7f bc 6d 26 63 3e
       -0.038805887 -0.26917696 -0.015611989 0.22182627
000010 3d 92 eb 3d c2 ef 45 3d a8 a7 a1 3c 1b 64 79 bd
       0.11502502 0.048324354 0.019733265 -0.060886484
000020 2b d9 5b 3d 61 a5 57 be 7e ba c8 3c 11 35 64 bd
       0.053673904 -0.21059181 0.024502989 -0.05571467
000030 bd 18 0a be b8 34 91 bb 7b a7 38 be 88 44 5a be
       -0.13486 -0.0044313334 -0.18032639 -0.21315205
000040 70 b4 25 3e 73 02 5a 3e 04 34 aa bd 4d d5 98 3c
       0.16182113 0.21289997 -0.083107024 0.018656397
000050 8c 7c 15 3d 0c 7f 77 3d 60 c6 99 3d b1 d6 c2 3d
       0.03649573 0.060423896 0.0750854 0.095136054
000060 7b f5 50 bc c1 0a 25 be e4 8a 6e be e8 8a 99 3d
       -0.01275384 -0.16117384 -0.2329517 0.074971974
000070 bc 7f 46 be 6d 17 79 3c 10 c6 d2 bc e6 e1 1b bd
       -0.19384664 0.015203339 -0.02572921 -0.03805723
000080 fe 74 78 bc f7 2f 6b 3e 11 71 09 bb 93 f1 10 be
       -0.015164612 0.22967516 -0.0020971934 -0.14154653
000090 78 c6 2c bd 93 96 c6 bc 80 84 20 bd 22 4e ef bc
       -0.042181462 -0.024241721 -0.03918886 -0.029212061
0000a0 23 00 1e be fe 27 02 3d b5 d7 67 bd b4 10 88 3d
       -0.1542974 0.03177642 -0.0566022 0.06643811
0000b0 14 6f 3d bd a6 f1 30 bc 2d 11 a5 3b 8d d1 0c 3d
       -0.04624851 -0.010799801 0.005037448 0.03437953
0000c0 58 2d 93 3a f1 3b 9c 3b f9 1e c1 bc 94 00 d9 bd
       0.0011228723 0.0047678878 -0.02357434 -0.105958134
0000d0 d9 e4 82 bd 97 1a 0d bd 0a 53 66 bd ff 29 6c 3d
       -0.063913055 -0.034449186 -0.056231536 0.057657238
0000e0 66 9c b0 be 5b e8 96 3d 26 5a 87 be 53 fa b9 bc
       -0.34494323 0.07368537 -0.26435965 -0.022702372
0000f0 aa 6d 58 3a 91 5a 01 bd bc f1 d4 3c bb 72 82 bd
       0.00082560873 -0.03158051 0.025994174 -0.06369539
000100 e2 27 c4 bc c9 c5 92 3e 34 a2 5f 3b 82 86 97 3d
       -0.023944799 0.28666523 0.003412378 0.07398702
000110 3a 6d ce 3b 1d f6 c2 3d d4 35 eb bd 4f 57 8a be
       0.006299642 0.09519599 -0.11484876 -0.27019736
000120 ae fd 16 bd c2 69 cf bd aa 79 19 be d9 ff ac bd
       -0.03686302 -0.101275936 -0.14987817 -0.084472366
000130 cf 62 0d bd 30 7c 90 bc 8b b7 d5 bb 8f e4 2f 3c
       -0.03451806 -0.017637342 -0.006522124 0.010735645
000140 d0 69 84 3d f1 8f 9f 3b 06 54 88 3d e9 c6 96 bc
       0.06465495 0.004869454 0.06656651 -0.018405395
000150 2e ec 11 bd e1 eb 17 3e 11 31 ec bd 72 8d bd 3d
       -0.03562563 0.14836074 -0.11532796 0.09255494
000160 83 48 04 3e 8c b3 1e bd 41 be d4 bd b7 be d1 3c
       0.12918286 -0.038745448 -0.103878506 0.025603635
000170 6d ae 44 3e be 57 eb bc 5b 8d 51 bd a3 31 ba 3d
       0.19207163 -0.028728362 -0.051160198 0.09091499
000180 c5 a1 10 bd 17 09 ca 3d 2c a8 93 bc 41 ef 88 3c
       -0.035310525 0.09865015 -0.018024527 0.016715648
000190 d8 67 e8 3d 10 15 c5 bc 9c 97 2f 3e cf 2a 12 3d
       0.113479316 -0.024057895 0.17147678 0.035685357
0001a0 66 10 92 bb 01 c5 95 3c 4b f6 2e bd 0c af c5 3b
       -0.0044575213 0.018282415 -0.042715352 0.00603283
0001b0 90 96 a6 bd 1d 02 1f bd 45 a0 0d be ab 1f 7b be
       -0.08134186 -0.038820375 -0.13830669 -0.24523799
0001c0 f5 ae 44 3e d8 c6 76 3c 7b 6f ae bc cd d4 06 be
       0.19207366 0.0150620565 -0.021293392 -0.13167115
0001d0 ea 6c b8 be 36 55 c4 3c 36 6d af bc 65 ed 24 be
       -0.36020595 0.023966413 -0.02141438 -0.16106184
0001e0 1c ef 37 3d 46 47 8d bd ac 0e eb bc fa d3 a0 be
       0.044905767 -0.0689836 -0.02869352 -0.31411725
0001f0 bd 73 9f 3d a8 d8 83 3e ee 61 f0 3d f4 53 8c 3c
       0.07785747 0.25751233 0.117374286 0.017129876
000200 9b 9c 80 3b ed 1f 00 be ac 8a 00 bd 79 44 b4 bc
       0.003924919 -0.12512179 -0.031382248 -0.022005307
000210 cd 54 c4 3d 82 46 9f 3c 27 06 cf bd 9d 1d 11 bd
       0.09586487 0.0194428 -0.10108595 -0.035428632
000220 92 8d de bd 4a a2 95 bd e3 31 f0 bc 82 d0 9c bc
       -0.10866846 -0.07306345 -0.029320663 -0.019142393
000230 1a be 1f 3d 50 bc 89 3d 88 1f 07 be 83 95 fa bb
       0.038999654 0.06725371 -0.13195622 -0.0076472177
000240 2a 86 5d ba 46 01 04 bc cf b7 75 3e 32 61 0c bd
       -0.0008450473 -0.008056944 0.23995899 -0.03427238
000250 37 e7 57 be 52 fa 27 bd c1 a6 cb bd 31 e5 1a 3e
       -0.21084295 -0.04101021 -0.09943915 0.15126492
000260 fc 26 8d 3e c5 fd bd 3d 3d 26 0d bf 96 f3 cc 3b
       0.27568805 0.09276918 -0.5513647 0.0062546236
000270 9e e7 c0 bc e1 b4 79 3d b0 69 8e bc 2f 40 1a 3d
       -0.023547944 0.060963515 -0.01738438 0.037658866
000280 3c 8a 8a bc 7a 23 cb bd 06 ba fb bc 85 3c 9e bc
       -0.016911618 -0.09918876 -0.030728351 -0.019315967
000290 9d 34 93 bb b0 35 92 bc e8 8c 0a 3d cb c9 df 3b
       -0.004492356 -0.017847866 0.033825785 0.0068294755
0002a0 65 f2 21 bd d7 22 35 3d 9b 33 9f bd 01 b8 56 3c
       -0.039537806 0.04422268 -0.07773515 0.013105393
0002b0 3c 77 b7 3d ca a0 3b be 75 84 b1 3c 3e 9f 64 bd
       0.08958289 -0.18323055 0.021669606 -0.055815928
0002c0 c7 8a 0d bd 0b b9 93 bd 71 59 f4 bc 5b b2 96 3d
       -0.034556177 -0.072130285 -0.029827805 0.07358237
0002d0 20 ee c2 bd e1 0d ac bc ab e7 8e 3b ea 93 a9 bd
       -0.09518075 -0.021002712 0.004361113 -0.082801655
0002e0 e1 fc 13 bc 3e 63 f0 3b 43 04 15 3e c8 da 02 bb
       -0.009032459 0.0073360493 0.14552407 -0.001996683
0002f0 58 ac 05 3d dd bf a1 be 7d 0c cb bd 86 6e 77 bd
       0.032635063 -0.31591693 -0.09914491 -0.060408138
000300 80 2c 77 be 32 ef b8 3b 33 ec 0c 3e 20 95 28 be
       -0.24138069 0.0056437487 0.13761978 -0.16463137
000310 25 3c 53 3e 42 ff b7 3d 0d f5 96 3b 78 1c f6 3c
       0.20628412 0.089842334 0.004606849 0.030042872
000320 a3 a2 8a 3d 8f 76 c9 bc 71 12 d4 3c 4f c8 5d bd
       0.06769302 -0.024592666 0.0258877 -0.054146107
000330 0b ef e9 3d 71 b1 d3 bd 72 a0 2b 3e fc 42 5f bd
       0.11422547 -0.10336579 0.16760424 -0.05450724
000340 b9 41 d0 3c 34 2d 45 be 05 9a 5f bb 71 4f c0 3d
       0.025421964 -0.19255525 -0.0034118902 0.09390152
000350 72 a3 7d bd a2 a8 43 3c ad 33 21 bb 68 ba bc bb
       -0.06192345 0.011942061 -0.0024597452 -0.005759526
000360 f7 1e 11 bd 67 eb 90 bc 32 22 16 bc 3c e9 a3 be
       -0.03542992 -0.017690374 -0.009163426 -0.3201388
000370 ba 02 bc bc 5d ce 08 be 10 1f 86 3e 12 11 77 3c
       -0.022950519 -0.13359971 0.26195574 0.0150797535
000380 da 8d 64 bd d8 5e ea 3c 92 63 d8 bd dd 41 93 3d
       -0.055799343 0.028609678 -0.105658665 0.07190297
000390 3b 5f 92 3d bf 30 a6 be e1 61 ea bc 04 81 5e 3c
       0.0714707 -0.32459065 -0.028611125 0.013580564
0003a0 6c 41 89 3d aa 54 7e 3c 20 f1 33 be af c8 ca bd
       0.06701931 0.015523115 -0.1757245 -0.099015586
0003b0 11 cc 49 bc d1 5b c1 bc 76 4d f2 bb 97 47 19 3c
       -0.01231672 -0.023603352 -0.007394488 0.009355447
0003c0 c4 d5 80 be 8d a7 fb 3d 43 22 84 3e 4c 22 95 be
       -0.2516309 0.12287817 0.2580739 -0.2912773
0003d0 78 75 18 3d 5f 82 33 3e f5 30 9d be 5c 31 94 bd
       0.037221402 0.17530201 -0.30701414 -0.07235977
0003e0 5b 5e 72 be 5a da 9f bd cd a2 85 be ce 23 cb bd
       -0.23668806 -0.07805319 -0.2610077 -0.099189386
0003f0 d9 b8 6a bd 78 01 c6 3e e8 af c9 3b 48 d7 3f be
       -0.05730519 0.38672996 0.006155003 -0.18734467

3.bias f4 [16]
000000 66 91 19 be 96 8e b0 bc e7 1c b0 3c d3 83 f0 3d
       -0.14996871 -0.021552365 0.021498157 0.117438935
000010 d5 d4 33 be 55 83 4d bc 75 d9 8e bd f7 5d a9 bd
       -0.17561658 -0.012543519 -0.069750704 -0.082698755
000020 f2 7d 2d bd 63 07 4c be 0b 32 f7 bd 45 83 9c 3d
       -0.04235644 -0.19924693 -0.12070092 0.07642225
000030 60 cf c2 bd 35 cf 56 be 62 00 bb 3e f6 1f a8 bd
       -0.0951221 -0.2097748 0.3652373 -0.08209221

5.weight f4 [1, 16]
000000 23 79 3c 3d 14 70 5a 3d 73 6d 4c bd 60 67 7d 3d
       0.046013962 0.053329542 -0.049909066 0.061866164
000010 21 cc 3a bd 90 ea 8c 3d 4a fd 67 3b cc ba 89 3c
       -0.04560483 0.06880677 0.0035398775 0.016812705
000020 18 05 00 3d db e7 ed bd 4c 1f 69 3d 01 22 64 bd
       0.031254858 -0.116164885 0.056914613 -0.05569649
000030 36 e8 af 3c 70 0e 1c bb 51 6e a7 bd 35 21 c4 3c
       0.021473031 -0.0023812316 -0.08175338 0.023941616
