sentimentpl/trained_models/latest.pth (torch, 805847 bytes, 5 tensors)

1.weight f4 [256, 768]
00000000: b34b 8fba 77e0 44be f944 2e3c 8420 c53d
00000010: 2163 4dbc df36 093e 8c75 583e 3b55 13bc
00000020: e5c4 4fbe e4fe 6e3c 74ea 8f3e b7a2 133e
00000030: 20f4 22be 4e0f 1abe 2355 a23e 76e4 17be
00000040: 227b 053d 1dba d4bc acdf 123e bce4 f53d
00000050: eac2 703e 2167 053e df5a ab3c caf4 a9bd
00000060: 5d8b 4ebe d348 76be f326 d43d 3f75 213e
00000070: e75a 98bd 0bb0 a9bd 5850 c9bd fce8 be3e
00000080: e486 b03d 83d8 4cbe ad00 823e e68d 00bd
00000090: bb0b 173e 805e 0abd de5e 0bbd 057d 71bd
000000a0: 0a58 6e3e 3930 083e 68c2 38be 01cf 23bd
000000b0: c240 963d 2170 cbbd eb22 28be d569 3b3e
000000c0: c48d 593d a4f9 0ebd 2448 e3bd 333a a9be
000000d0: 40da 343d a935 043e 3734 683e 43cc e6ba
000000e0: 1d40 d73e 8f46 d2be ac99 b83c 681a 78bb
000000f0: d77e 623c 2e72 7ebe c4a2 903e 9d3d 2a3d
00000100: 9c59 b2be 2904 213e 9d45 9ebd c708 1a3c
00000110: 57c7 273e 5016 b7be e04a c7bd a8ca 99bc
00000120: d7d8 813e c7b7 c6bd 0879 823d ab9d d43d
00000130: 5f2e 5f3e 0814 f23c 9f40 723d 192d 9f3d
00000140: 74ef 8b3d efe9 8f3d 3a12 95bb a978 78bd
00000150: a578 15bc 2866 973e 0bac 2a3c 206c 3ebd
00000160: 53ed 0bbe d6cb 473e dd61 2e3c cf40 d8bd
00000170: 0611 b33c c120 0abe 7f70 d03d e933 56be
00000180: ec80 a03d 9fb6 023e 3d4f 50be b23c 8e3d
00000190: ca04 293e 5f55 a9bd e96b cabd d72b 08be
000001a0: ebeb 813e 6efc 54bd 5665 b93d d5e5 233e
000001b0: a91e 74bd 232a 0b3e e4e7 1a3b 8a87 553e
000001c0: 7fd6 00be b37a ebbd 0d10 58bc 4f3f 763d
000001d0: 7a98 d43d d3c4 33be bfee 593c b986 5f3e
000001e0: 972f 0c3e 69aa 533e d724 3bbd eea9 153c
000001f0: d012 babd 627c a73d 7cc8 6ebd 2564 f8bd
00000200: 453f dcbd 3205 083e 9e92 27be b8c1 f6be
00000210: 8c0c 7a3e bd7a 343d 8893 853e e94c 063e
00000220: d61d ac3e d31c 35be 13c8 733e 32e8 553d
00000230: 5670 603d 33d6 69bd 9d99 153d 5456 1bbb
00000240: 5a68 4b3d 3aa0 cabd 72a3 9a3e ca18 d9be
00000250: b962 1fbe 956e bdbe 136a ec3d 08de cebd
00000260: 9f49 c03b 8805 933e a1bf 313e be0b 79be
00000270: 5dcf 003e 27b4 adbd c24d 0abe baee a0be
00000280: 0d69 323e 73e4 0a3c 9284 24be d8e3 573e
00000290: 3e55 1a3c e17c d83d 3914 8dbd de0a 4b3e
000002a0: 49d1 193e 803c 31be f473 8bbe 35e7 a73d
000002b0: ded8 eebd 17c5 fd3e 57d3 24be c41e 8bbd
000002c0: c299 2a3e 183d 853c 0e7f 9c3d f054 b3be
000002d0: 600d 51bd 0c3b 733e 9377 db3d de81 90be
000002e0: 83ed 0c3f 4138 2f3e dca1 e5bd 6fd2 323e
000002f0: 009d 11be db5d 69bd 17ec ab3d 1e5e 6f3d
00000300: dff0 abbc 5d88 5b3e 00ee 993d 319f 04bf
00000310: cb28 bfbe ad28 08bc f744 ab3d 26a6 e1bd
00000320: 0c94 abbe b262 31bd 93a4 6abd bb95 afba
00000330: effe 72bd 2894 a33d 117f d53d 1667 a4bd
00000340: dbd4 babe 33bf 543b d69b cd3d 490c cebe
00000350: 8af6 db3c ca20 103e dd22 59bd 4bd6 5fbe
00000360: 854f c0bc f6fd 8c3c 4c16 503d 059f b33d
00000370: fd92 763e 8ff4 e7be 3d65 abbd 310f 1c3e
00000380: c2f1 0dbe 41f3 003d 5690 ab3d 902b bf3d
00000390: 86c1 833d d633 443e bfdc 013e 627c aabd
000003a0: f128 453e 550a ad3c 1d7f 7d3d d6ad c1bd
000003b0: 9bba a0be 066a bfbe 485a 383e e275 ba3d
000003c0: f292 043e 41fe 453e 6d72 263e d354 abbd
000003d0: 79bf d43e f7d8 fbbd 255b 0abe ca43 563e
000003e0: 8d22 623e 1f2a 073e 1f64 61be 5e3e dcbd
000003f0: 813d 26be b5ff 063f 691c 73bc d6d1 f7bc
-0.0010932594 -0.19226252 0.010636562 0.096253425 -0.012535841 0.13399838 0.2113859 -0.0089924885
-0.20289953 0.014587138 0.2810856 0.1441754 -0.15913439 -0.15044901 0.3170558 -0.14833245
0.03258813 -0.025967652 0.14343137 0.12006518 0.23511854 0.13027622 0.020917354 -0.08298643
-0.2017035 -0.24051218 0.103589915 0.15767382 -0.07439213 -0.08285531 -0.098297775 0.37287128
0.08619478 -0.20004468 0.2539114 -0.031385325 0.14750569 -0.03378153 -0.03402602 -0.05895712
0.23275772 0.13299645 -0.1804291 -0.039992336 0.0733657 -0.09933496 -0.1641957 0.1830209
0.053113714 -0.034906045 -0.11097744 -0.33052215 0.044153452 0.12911095 0.22676168 -0.0017608482
0.42041102 -0.41069457 0.022534214 -0.0037857536 0.013824186 -0.24848244 0.2824918 0.041562665
-0.34833992 0.15724243 -0.077281214 0.009401507 0.16384636 -0.3575921 -0.09731078 -0.018773392
0.25360748 -0.097030215 0.06370741 0.10381635 0.21795033 0.029550567 0.05914366 0.077722736
0.068327814 0.07027041 -0.004549292 -0.060661945 -0.009123002 0.29570127 0.010416995 -0.046489835
-0.13664751 0.19511351 0.01064345 -0.10559236 0.021858703 -0.13489057 0.10177707 -0.2091824
0.0783709 0.12764977 -0.20342727 0.069451705 0.16505733 -0.08268236 -0.098838635 -0.13297974
0.25375304 -0.05199855 0.090525314 0.16005643 -0.059599552 0.13590293 0.0023636753 0.20852485
-0.12581824 -0.114980124 -0.013187421 0.06011897 0.10380645 -0.17555551 0.01330155 0.21828736
0.13690029 0.20670475 -0.04568943 0.009134753 -0.090856194 0.08178021 -0.058296666 -0.12128476
-0.10754255 0.13283232 -0.16364524 -0.4819467 0.24418849 0.044062365 0.2608912 0.13115276
0.33616513 -0.17686777 0.23806791 0.05222339 0.054794632 -0.057089042 0.03652345 -0.0023702579
0.049660064 -0.09893842 0.30202824 -0.42401725 -0.15565003 -0.3699843 0.115436696 -0.10100943
0.0058681513 0.28715158 0.17358257 -0.24320886 0.12579103 -0.08481627 -0.13506225 -0.31432134
0.17422886 0.008477318 -0.16066197 0.21083009 0.009419737 0.10570694 -0.06888623 0.19828364
0.15021242 -0.17308235 -0.27236903 0.08198396 -0.11662458 0.4956443 -0.16096245 -0.067929775
0.16660216 0.016264483 0.07641421 -0.3502574 -0.051038146 0.23752993 0.10716166 -0.2822408
0.55049914 0.17111303 -0.11212513 0.17463087 -0.14220047 -0.056974273 0.0839464 0.058439367
-0.02098888 0.21438737 0.07516098 -0.51805407 -0.3733581 -0.008310479 0.083627634 -0.110180184
-0.33511388 -0.043307014 -0.057285856 -0.0013396064 -0.059325155 0.07987243 0.104246266 -0.080274746
-0.3649052 0.0032462596 0.10039489 -0.40243748 0.026850957 0.14075008 -0.053011764 -0.2185909
-0.023475418 0.017210942 0.050802514 0.08770565 0.24079509 -0.4530377 -0.08368919 0.1524017
-0.13861755 0.031481985 0.08377139 0.09334481 0.06433396 0.19160399 0.12681864 -0.083245054
0.19253899 0.02112309 0.061888803 -0.09456985 -0.3139237 -0.37385577 0.1800319 0.091045156
0.1294668 0.19335271 0.16254587 -0.08365788 0.41552332 -0.12297242 -0.13511331 0.20924297
0.22083493 0.13199662 -0.2201085 -0.10754083 -0.162344 0.5273393 -0.0148383165 -0.030251425

1.bias f4 [256]
00000000: 083d 8e3d 6038 35be 5ae8 88bd f927 1b3b
00000010: 1d07 1bbe 55fe bebc f20e 2abe 0bce 3fbd
00000020: 98af 0ebd fc2f 2fbd b17a febd 4787 06bc
00000030: 8833 acbd 62ca b9bd 2c2c a5bc 90ff c5bd
00000040: c273 06be b857 0dbd 82e9 53bd 4b06 24bd
00000050: 4c00 d6bd 1894 90bd a035 6cbd d051 4e3d
00000060: 24e4 4abd de70 1dbe d42a 12be eba1 6bbd
00000070: ca88 b0bd 2e70 3bbe 94f7 07be eb61 b3bd
00000080: 34a2 693c 8dac 103d 7d9a 34bd e259 fbbc
00000090: a0db f5bc b3a9 ecbd 8de6 4abd 4cac 87bd
000000a0: a4ee 1cbd df5f dbbd 49ac e1bd ef87 e6bd
000000b0: b42b ebbd 649c 90bd ba12 9fbd 370a a5bd
000000c0: 332a 0cbe ce97 80bd d23e c0bd 8310 03be
000000d0: c03f 3bbd 6add 29be 5a23 ebbc ead7 2dbe
000000e0: a4c3 a8bd cf8c afbd eac9 4fbe ab2f c1bd
000000f0: 27bb b4bd 27c9 c9bd f24d 2dbd 8763 34bc
00000100: f753 10bd 65ec f6bd 39cf c1bd 0faa 533c
00000110: 5630 02bd 71a3 14be 591d b3bc 2e50 94bd
00000120: 48df b1bd 027c bdbd 146a 9c3d 378f dcbd
00000130: ffa2 38be 46c6 3abb a2be 7abd 60a8 6ebd
00000140: c349 10bd e394 34be 1f1f 19be 4216 9aba
00000150: 08d5 d0bb 3306 45be 3b71 6abd 4e3f b4bd
00000160: 0a8e e0bd 195b 90bd d482 2cbd d878 03be
00000170: 39b9 80bd cea8 11be 36a8 39bd 1680 9f3c
00000180: 6c39 35bd bd80 1fbe 26b5 70bd 5b61 37be
00000190: c6ea c0bd 756e bfbc 5ddc 44bd 298c f2bd
000001a0: 4d02 92bd a911 66bd a67c bdbd 6472 3dbd
000001b0: c3a1 be3d 4d46 c2bd 5ccf 14be dc69 33bd
000001c0: de0e dbbd a90a b7bd cdba c0bc 2839 52bd
000001d0: 67d5 01be cbf3 c3bc 4ebf b0bc b012 3bbe
000001e0: 5aab c7bd 3527 45be a703 adbd 58fc 32be
000001f0: 88ed f5bd feb7 f4bc fe76 8ebd cd6d 3ebd
00000200: 0a91 a3bd 9a90 29be 2497 07be e505 f7bd
00000210: f23c 03bd cd51 0dbe b36b 10be 9a65 afbd
00000220: 7ea1 f9bd c08a 91bd e095 c0bd d844 78bd
00000230: 3029 89bd 338e b4bd 92be cebc 0493 0ebe
00000240: 8aa2 b5bd 38b9 4ebd db1c b5bd c68e 6ebd
00000250: 704c 7dbd 24f9 18bd 575b 43be 3ead b6bd
00000260: 86df acbd 1c5e 0dbe b6aa c2bd 67cb a5bd
00000270: c323 b9bd 3590 d6bd f48a abbc b1cb 4abd
00000280: adc6 66bd 4d34 8b39 5efa 7b3d ef99 dabd
00000290: 26b8 87bd f800 e2bc 574f a1bd a982 18be
000002a0: 39b0 0ebe 3380 4ebd 6a7c 95bc c28d c4bd
000002b0: dc94 b3bd 9f4b fcbd 8a26 1abe ebc5 f7bb
000002c0: 933c 0bbc 0265 bbbd 2d4a e7bd c427 e33c
000002d0: 5186 4cbe 46ff 9ebd 57f9 b7bc 9e17 06be
000002e0: 2d41 e2bd 1beb 87bd 1a0d 1fbe dfe6 bebd
000002f0: 8ef3 31bd 35e4 c5bc ed41 eabd 3445 0cbe
00000300: eff1 c9bd d6cd 533d c9df f2bb 5df5 14be
00000310: 4d35 a5bd c178 e2bd 265c 473a fbca 53bb
00000320: 41f8 9cbd 9636 8fbd 5f3a acbd dae8 bbbd
00000330: 0965 c9bd 002b 91bd c81d 46be ce72 98bd
00000340: c631 91bd 634b d9bd 2582 91bd affd 033d
00000350: b213 2dbd 4416 0bbe 7450 b9bd 6228 c7bd
00000360: 9662 b1bd a40d dcbd 66b3 d13c 2379 d0bd
00000370: 6dd7 b4bd bf1b 49bd 2dd2 aabd 0326 063d
00000380: d9f8 4c3d 6fea fcbc ba56 f3bd dd7a 2f3d
00000390: 7a2b c43c 1570 a7bd 32b2 8dbd c474 eebd
000003a0: f591 d9bd f94a a3bc 0622 873c ee20 d9bd
000003b0: 9d9a b8bd 83d4 c6bd 7354 de3c 6799 c83d
000003c0: 21de b3bd a647 a4bd b74e 12be 6163 e6bd
000003d0: cfb4 9c3c 0885 353c e179 9bbd 5e4a debc
000003e0: d72c ebbb 5d28 13be f020 d0bd 51de e2bd
000003f0: 987c f2bd 5748 873d 3ae8 1abd b002 d4bd
0.069452345 -0.17697287 -0.066849425 0.0023674949 -0.15139432 -0.023314634 -0.16607264 -0.046827357
-0.034835428 -0.04277037 -0.12425745 -0.008210964 -0.08408266 -0.090718046 -0.020162664 -0.09667885
-0.13130096 -0.034507483 -0.051736362 -0.040045064 -0.104492754 -0.07059497 -0.05766833 0.05037099
-0.049533978 -0.15375087 -0.1427415 -0.057527464 -0.086198404 -0.18304512 -0.13278037 -0.08758911
0.014259864 0.035320807 -0.044092644 -0.030682508 -0.030011952 -0.11555805 -0.049536277 -0.0662466
-0.038313523 -0.10711645 -0.11019189 -0.11256396 -0.11482945 -0.07061079 -0.07767244 -0.08058589
-0.13687973 -0.062789544 -0.09386982 -0.12799267 -0.045715094 -0.16588369 -0.02870338 -0.16976896
-0.082404405 -0.08571779 -0.20291868 -0.0943292 -0.08824759 -0.0985282 -0.042310663 -0.011010057
-0.035236325 -0.120568074 -0.09463353 0.012918963 -0.031784378 -0.14515473 -0.02186458 -0.072418556
-0.08685166 -0.09252168 0.0763742 -0.107695036 -0.18030928 -0.0028499528 -0.061216958 -0.058266044
-0.035226595 -0.17634921 -0.14953278 -0.0011755901 -0.0063730516 -0.19240646 -0.05723689 -0.08801137
-0.10964592 -0.070486255 -0.042116955 -0.12839067 -0.062853284 -0.1422455 -0.045326434 0.019470256
-0.044244215 -0.15576454 -0.058766507 -0.17908232 -0.094197795 -0.0233681 -0.048061717 -0.1184314
-0.07129345 -0.056169186 -0.092522904 -0.04625167 0.09308197 -0.09486065 -0.14532226 -0.043802127
-0.10696195 -0.0893758 -0.023526574 -0.05132404 -0.12679063 -0.02391996 -0.021575596 -0.18268847
-0.097494796 -0.19253238 -0.08447962 -0.17479074 -0.12008196 -0.02987289 -0.0695629 -0.046491433
-0.079866484 -0.16559067 -0.1324125 -0.12061671 -0.032040544 -0.13800736 -0.14103584 -0.08564301
-0.12189005 -0.071065426 -0.094035864 -0.06061253 -0.06697309 -0.08816185 -0.025237355 -0.1392327
-0.088688925 -0.050469607 -0.08843394 -0.058241628 -0.061840475 -0.037346974 -0.19077812 -0.08919762
-0.08441071 -0.13805431 -0.09505217 -0.080954365 -0.09040024 -0.10476724 -0.020940281 -0.04951066
-0.056341816 0.00026551113 0.061518066 -0.10673892 -0.066269204 -0.027588353 -0.07876461 -0.14893593
-0.13934411 -0.05041523 -0.018247802 -0.09597351 -0.08768627 -0.12319111 -0.15053764 -0.0075614355
-0.008498329 -0.09150125 -0.11293445 0.027728923 -0.19973113 -0.07763533 -0.022457762 -0.13094947
-0.110475875 -0.0663664 -0.15532342 -0.09321379 -0.043445162 -0.02415667 -0.114383556 -0.13698274
-0.09860598 0.051709972 -0.007411931 -0.14546724 -0.08066807 -0.11058188 0.0007604979 -0.003231703
-0.07664538 -0.06992833 -0.08409571 -0.09175272 -0.09833724 -0.0708828 -0.19347298 -0.07443772
-0.07089572 -0.10610082 -0.07104901 0.032224353 -0.04225511 -0.13582712 -0.09048548 -0.09724499
-0.08661382 -0.10744789 0.02559824 -0.10179355 -0.08830152 -0.049098726 -0.08340869 0.032751095
0.050042007 -0.030873505 -0.11881776 0.04284178 0.023946512 -0.08175675 -0.06918754 -0.11643365
-0.10623542 -0.01993321 0.016495716 -0.10601984 -0.09013865 -0.09708502 0.027139878 0.09794884
-0.08782602 -0.08021478 -0.1428784 -0.11249424 0.019129185 0.01107908 -0.07591606 -0.02713507
-0.007176976 -0.14370866 -0.10162532 -0.1107756 -0.118401706 0.066055946 -0.037819125 -0.10352075

3.weight f4 [16, 256]
00000000: 530f 32be 05e6 13be 6580 59be 23bf 7f3c
00000010: 50d9 63bd d3a3 c63c b142 653d 1077 a8bd
00000020: 05c3 c7be cf87 b63d f175 10be fa39 143e
00000030: aad0 fc3d ee17 283e f74b 0c3e 2e97 b13c
00000040: d154 a2be 37d5 febd 8c9b 873d 83ba 8dbd
00000050: 7c0c aebd a2e0 113d bef7 813e 8b0a ad3e
00000060: 1677 513c 6f34 2bbe 35fe 163e 29e5 283e
00000070: f8ab 6dbd 6f1f 063e d1a6 7abc 2ea3 e93d
00000080: d6bf 46bd 1595 d33d e0c9 663d c3dd 593e
00000090: ee40 16be cb68 323e 02b7 98ba c629 55be
000000a0: 9d91 873d ce49 10be 6e9f 793d 5ebf c13d
000000b0: 2ecf b53d a5d4 a83c cce0 c43d c2cc 743d
000000c0: f8ed 53be d6d2 f6bd c432 a13d a9bd f83d
000000d0: d34b 963d 52e8 adbd bce2 cebe f9ce a2bd
000000e0: cf3a 353e 5e4e fb3d 4219 a23d d501 9e3d
000000f0: 338a 0e3e 8715 2e3e ff87 0a3e 5165 fcbd
00000100: 1077 eebd 0b7f e93d 5e4c d63d cd85 913b
00000110: db94 f2bd 1c35 063e 83a9 383d 447c 033e
00000120: 66e2 bb3d 7ca2 503d 4a21 81bc 91e0 a3bd
00000130: 0a2b 78be 2b42 b2bd 34ab ac3d 094d 4b3e
00000140: 57e4 503d 9d81 51be 761d 7a3d 5c62 30be
00000150: 8f2e 873b d272 ed3d 802e 273e a346 1a3e
00000160: 0acc 103e f773 43bd 7154 843d 14cc 0bbe
00000170: dcf0 143e 571b 543e 1fd5 be3d 456a 0b3e
00000180: 9298 d63d 0945 343e 77ad 813c a0bc 52be
00000190: 2217 30bd 1426 23be b04a 6f3d 8983 3c3d
000001a0: 6d82 663d 4b6b 143e 4b85 eabd 21ca 6dbe
000001b0: 91b1 40be 70e5 f8bb c2ea e03d b1b3 b13d
000001c0: 4a76 943d a948 b7bc 327e 983d a2a8 15bb
000001d0: 0042 9ebe bf9e df3d b9ef 53bd 645c d83d
000001e0: 836f dc3d d52d ffbd 8cad 0d3e cf66 e2bb
000001f0: 0143 a83d 00f7 7fbe 67e8 97be 99ae fd3d
00000200: 2a62 173e 3687 a8bc 1551 123e eb5f c83d
00000210: d72a a4be 171c 67bd 3b5b 003e 64e5 93bd
00000220: 3eb1 a93d 4f47 9d3c 8bce 86bd e4bb 9f3d
00000230: 1e48 55be 4a45 e73d 75b3 74bd 08c3 d73d
00000240: 571a c6bd 8d3b 493d 8b04 ae3d fc03 953d
00000250: 055f 7cbe 8cac 31be 57ad 2ebe 9fbb 943d
00000260: 4800 c03d fc04 edbd c109 7fbb 479c e23d
00000270: 5f38 763d 3405 6dbb b9d2 eabd 3190 5ebc
00000280: 7700 083e 8e34 7cbd 6c36 f5bd 0ce8 af3c
00000290: b114 5a3e 7bf6 cbbe 001a 393d dedb 033e
000002a0: a1ea ec3d 4726 cb3d 5871 a4bd c899 49bd
000002b0: 0c46 86bd 110c 3fbe b8b1 933d 0a76 f9bd
000002c0: 7c26 42be 07ed ae3d d81c 373c 8078 703c
000002d0: 6822 da3d fef4 8d3d ab55 1cbe 17fe 9b3c
000002e0: 8d32 67bc 6990 033e c02c fabb c431 a93d
000002f0: 28c2 0b3e cf7c 483d d0e8 51bd ad79 003d
00000300: 0e6c 033d 9799 ccbc 4eb1 113b fd09 073d
00000310: 8ec2 f03c d3da 313e 6227 a9bd 5182 02be
00000320: 2efa e0bc 83f4 d93d 6560 72be 1531 0f3e
00000330: 63de 4dbd d39b 363e 07a0 bebd 62f1 de3d
00000340: 2a9b 5ebe 7090 e93d 0410 dd3d 2ba4 a93d
00000350: 2186 4e3d 3a1d 86bd 586e 43bd 429c 9c3d
00000360: 9170 ecbd 3f72 a43d 01b5 8fbd b9eb b23d
00000370: 1a83 053e 3921 753d 3942 d93d 4c90 4a3d
00000380: 077d 4ebe 7ac7 d33d 3a02 653d b6a1 f3bd
00000390: f677 20be a183 853d 77a2 c3bd 3645 433d
000003a0: e56b 25be 5527 4dbe 8cbb e23d b1ac a63d
000003b0: a701 ce3d 3b6e 82bb a9da a53d 7958 49be
000003c0: 713d ed3d 4818 143d 326e 223e ed41 593d
000003d0: 2b93 1f3e e6dc c5bd 84d0 bcbd fd14 343e
000003e0: a225 c83d 73c5 28be 4e0f 303e 0cf5 ff3d
000003f0: 135d d3bd 05bb ec3d c63a 0c3e 8fc3 c03d
-0.17388658 -0.14443214 -0.21240385 0.015609535 -0.055627167 0.02424804 0.055971805 -0.08225834
-0.39015976 0.08912622 -0.14107491 0.14475241 0.12344487 0.16415378 0.13700853 0.021678533
-0.31705335 -0.12443011 0.06621465 -0.0692034 -0.08498475 0.035614617 0.25384325 0.33797106
0.01278474 -0.1671922 0.1474541 0.16493668 -0.05802533 0.13097928 -0.015298561 0.11408077
-0.048522793 0.103311695 0.056344867 0.21276002 -0.14673206 0.17422788 -0.001165122 -0.20816717
0.066195704 -0.14090654 0.06094306 0.094603285 0.08877407 0.02060921 0.09613189 0.059765585
-0.20696247 -0.120519325 0.07871011 0.1214555 0.07338681 -0.08491577 -0.4040736 -0.07949633
0.17698215 0.12270807 0.07914974 0.07715193 0.13919906 0.170004 0.13528441 -0.12324012
-0.11643803 0.11401185 0.10463785 0.004440999 -0.11844798 0.13106197 0.045083534 0.12840372
0.091740415 0.050936207 -0.015762944 -0.08001817 -0.24235168 -0.08704027 0.08431092 0.19853605
0.05099901 -0.204596 0.061063252 -0.17225021 0.0041254233 0.11594166 0.16326332 0.15066008
0.14140335 -0.047718015 0.064614184 -0.13652068 0.14545006 0.20713554 0.093179934 0.13614757
0.10478319 0.1760446 0.015829785 -0.20579767 -0.04299081 -0.15932494 0.058420837 0.04602388
0.056276727 0.14494054 -0.11451205 -0.23221637 -0.18817736 -0.0075957105 0.109822765 0.086768515
0.07249124 -0.022373514 0.07445945 -0.0022836109 -0.3090973 0.1091895 -0.05174229 0.10564497
0.10763457 -0.12459914 0.13835734 -0.0069092284 0.08215905 -0.24996567 -0.29669496 0.123868175
0.1478354 -0.020572286 0.14288743 0.0978392 -0.32063934 -0.056423273 0.12534802 -0.07221487
0.082857594 0.019199042 -0.06582364 0.07799509 -0.20828292 0.11292513 -0.059741456 0.10535246
-0.09672993 0.049129058 0.0849696 0.072761506 -0.24645622 -0.17350978 -0.17058311 0.072623484
0.09375054 -0.11573216 -0.0038915726 0.11064964 0.060112353 -0.0036166431 -0.114659734 -0.013584183
0.13281427 -0.061573558 -0.11973271 0.021472953 0.21296956 -0.39836487 0.04519081 0.12876841
0.115681894 0.0991941 -0.08029431 -0.049218923 -0.06556329 -0.18656947 0.072116315 -0.12180717
-0.18959993 0.08541303 0.0111763105 0.014677167 0.10651094 0.06931494 -0.15267055 0.019042058
-0.014111173 0.12848057 -0.007634729 0.08261445 0.13648283 0.04894715 -0.051247418 0.03136604
0.03208547 -0.024975581 0.0022230926 0.03296851 0.029389646 0.17368631 -0.08259465 -0.12745024
-0.027463045 0.1064234 -0.23669584 0.13983567 -0.050260913 0.1783288 -0.093078665 0.10885884
-0.21738878 0.114045024 0.1079407 0.08283266 0.050420884 -0.06548543 -0.047712654 0.07646991
-0.11544908 0.08029603 -0.07016946 0.08736367 0.13038293 0.059846137 0.10608334 0.04945402
-0.20164882 0.103407815 0.055910327 -0.11896078 -0.15670761 0.06519247 -0.09552472 0.047673427
-0.1615444 -0.20034535 0.11070928 0.08138407 0.10058909 -0.0039804257 0.08098347 -0.19662656
0.11583985 0.03615597 0.15862349 0.053041387 0.15583484 -0.09661274 -0.09219459 0.17586131
0.09772803 -0.16481571 0.17193338 0.12497911 -0.10320487 0.11559109 0.13694295 0.094123

3.bias f4 [16]
00000000: 59db 12be bf11 b8bd 2a75 b63e c952 9cbe
00000010: a875 8fbd ce3c 243e 6ca3 debd 7295 8fbd
00000020: 6556 a3bd fa33 743c 3dcd 413c f51c 1c3d
00000030: 981a afbd c4c9 cabd e357 40bd 8b48 de3d
-0.14341487 -0.0898776 0.35636264 -0.3053191 -0.07004863 0.1603882 -0.10871014 -0.07010926
-0.07975463 0.01490497 0.011828718 0.038113553 -0.08549994 -0.09901765 -0.046958815 0.1085368

5.weight f4 [1, 16]
00000000: f8ab 45bd 9edc f13a 0210 abbd 5c7a adbd
00000010: 0e42 a3bc 069d 84bd c757 54bd eee2 6abd
00000020: 5ba7 523d f920 46bd 7a71 773d f716 b33d
00000030: d0d3 723c 3f45 473d 1dff 4a3c 44ef 833d
-0.048259705 0.001845259 -0.083526626 -0.08470604 -0.019928958 -0.06475262 -0.051841523 -0.057345323
0.051429134 -0.04837129 0.060410954 0.087446146 0.014821008 0.048650023 0.012389925 0.06442121
