sentimentpl/trained_models/latest.pth (torch, 806303 bytes, 5 tensors)

1.weight f4 [256, 768]
0	0xbca4ef6e	-0.0201337
1	0xbc4733b7	-0.012158326
2	0x3c85a9ca	0.016316313
3	0xbb7fb6f2	-0.0039018956
4	0xbcdaa353	-0.026689207
5	0x3c8250ae	0.015907612
6	0xbbb0777d	-0.005385338
7	0x3ccda462	0.025102798
8	0xbc1114ba	-0.008855039
9	0xbc94b959	-0.018154787
10	0xbb1f7e3d	-0.0024336718
11	0xbd31ae87	-0.043379333
12	0xbacad50b	-0.0015474869
13	0xbc917ba5	-0.017759154
14	0xbc5796c0	-0.0131585
15	0xbb6bf8bb	-0.003600641
16	0xbc419d88	-0.0118173435
17	0xbca69f9e	-0.020339783
18	0x3cae8d17	0.021307511
19	0x3cc0ac2a	0.023519594
20	0x3cece476	0.028917532
21	0xbd0d870e	-0.034552626
22	0x3c894c6b	0.016760072
23	0x3b7ed899	0.0038886426
24	0x3afff0d8	0.0019526733
25	0xbb1e4e56	-0.0024155579
26	0xbc6849c8	-0.014177747
27	0xbd532298	-0.051546663
28	0xbd1a8c21	-0.037731294
29	0xbd1f40d1	-0.038880173
30	0x3cf87c9e	0.03033286
31	0xbc24a4c4	-0.010049049
32	0x3d0bfea4	0.03417839
33	0xbcd47a56	-0.02593724
34	0x3b8734fd	0.0041261897
35	0xbca99f93	-0.020705974
36	0xbcec7786	-0.028865587
37	0xbcafd248	-0.021462575
38	0x3d661b21	0.056178216
39	0xbccf9ff0	-0.025344819
40	0x3cce8fcc	0.025215052
41	0xbc77bd57	-0.015120826
42	0xbc7fd644	-0.01561505
43	0xbd3824a7	-0.04495683
44	0x3d0e987a	0.03481338
45	0x3ccc2b99	0.024923133
46	0x3c5afd02	0.013365986
47	0xbc88853e	-0.016665097
48	0x3d103d3a	0.03521464
49	0xbc8dc59c	-0.017306142
50	0xbd8297b2	-0.0637659
51	0xbd544730	-0.051825702
52	0x3d97d68d	0.07413969
53	0xbd841b61	-0.064505346
54	0xbc8c7f4b	-0.017150542
55	0xbce8c5c2	-0.02841461
56	0xbc15a425	-0.009133373
57	0x3cb2aff1	0.021812411
58	0x3bcba21c	0.0062143933
59	0x3a102e26	0.0005500041
60	0x3c68be6f	0.014205559
61	0xbbe36dba	-0.0069405707
62	0x3be65b89	0.007029955
63	0x3d0b5790	0.034019053
64	0xbc573d59	-0.013137185
65	0x3cc51ffb	0.024063101
66	0xbd46bda7	-0.04852071
67	0x3d3eeafb	0.046610814
68	0x3b88e248	0.0041773655
69	0x3cbf38ac	0.023342453
70	0x3a25c63e	0.0006323791
71	0x3cd1543b	0.02555286
72	0xbc949f4d	-0.018142367
73	0x386f33f7	5.7030436e-05
74	0x3d2fa336	0.04288026
75	0x3d097b9d	0.033565152
76	0xbb8992f7	-0.004198428
77	0x3c6981e7	0.014252163
78	0x3d1e1d03	0.038601886
79	0xbab246fb	-0.0013601476
80	0x3d0b58f9	0.034020398
81	0xbc886e0a	-0.016654033
82	0xbbeee004	-0.0072898883
83	0xbc94cd4c	-0.0181643
84	0x3a472e25	0.00075981236
85	0xbcfee465	-0.031114766
86	0xbc83f26b	-0.016106805
87	0x3c29661e	0.010339288
88	0x3b7b0611	0.0038303176
89	0xbcbde769	-0.023181634
90	0x3c787a94	0.015165944
91	0xbca2b637	-0.019862277
92	0xbbcb41c2	-0.0062029073
93	0x3cabb19f	0.02095872
94	0x39dbed03	0.00041947523
95	0xbc0439de	-0.008070437
96	0x3c2a69a3	0.010401162
97	0xbbcce1c7	-0.0062525007
98	0xbc20c7f5	-0.0098132985
99	0xbc873121	-0.016502919
100	0xbbce28fd	-0.0062915073
101	0x3ce76a15	0.028248826
102	0xbc9a6b03	-0.018849855
103	0xbb94ade9	-0.0045373333
104	0xbc8adf2b	-0.016952118
105	0x3cc5949a	0.02411871
106	0xbc89d374	-0.016824462
107	0xbc2d3425	-0.010571514
108	0x3ba0dbb9	0.0049090055
109	0xbd3e6268	-0.046480566
110	0x3d3d0891	0.046150748
111	0x3c0e8466	0.008698558
112	0x3bdcf532	0.0067430967
113	0x3bf0dacd	0.007350302
114	0x3c95c43a	0.018282045
115	0xbcb2bb23	-0.02181775
116	0x3c9a99f7	0.018872244
117	0xbb13a05a	-0.0022525997
118	0xb918091e	-0.00014499246
119	0x3d977d64	0.07396963
120	0x3c47c577	0.012193075
121	0x3ca22e22	0.019797388
122	0xbc48d78f	-0.012258424
123	0xbc8a01ef	-0.016846625
124	0xbd172448	-0.036899835
125	0xbd04400f	-0.032287654
126	0x3d77c432	0.06048984
127	0xbd2af4c7	-0.041737344
128	0xbb01d04e	-0.0019807997
129	0x3d217ae7	0.03942385
130	0x3c11ecaa	0.008906523
131	0x3c86f500	0.016474247
132	0xbcc6095c	-0.024174385
133	0x3cf22379	0.02955793
134	0x3c722d92	0.014781373
135	0x3d0b19d2	0.03396017
136	0xba5bb746	-0.0008381497
137	0xbc80c434	-0.015718557
138	0x3cb074e6	0.021540117
139	0x3cea241c	0.028581671
140	0xbc2e6535	-0.010644247
141	0xbbe9cce3	-0.00713502
142	0x3b01112e	0.0019694078
143	0xbc417f17	-0.011810086
144	0xbc81c1c8	-0.015839472
145	0xbac6379c	-0.0015122774
146	0xbb906d73	-0.0044075786
147	0x3cc63298	0.024194047
148	0x3ca94336	0.020661931
149	0x3bb81872	0.0056181485
150	0xbd4139d9	-0.04717431
151	0x3c77e6b8	0.015130691
152	0xbcf94039	-0.030426132
153	0xbceae4c1	-0.028673531
154	0xbc764a9f	-0.0150324395
155	0x3bb34b2d	0.005471608
156	0x3c6b5cf6	0.014365425
157	0xbbb8d010	-0.0056400374
158	0xbad27f31	-0.0016059635
159	0xbb82c8b9	-0.003991213
160	0x3c44c8fe	0.012010811
161	0xbbd0e66d	-0.006375125
162	0xbcd5bb16	-0.026090186
163	0x3c4d425a	0.0125280265
164	0x3ca9b4d7	0.020716114
165	0x3c1ab7d9	0.009443247
166	0x3c9eeba1	0.019399466
167	0x3d09bec3	0.03362919
168	0x3c1d6208	0.009605892
169	0xbb0c1734	-0.0021376135
170	0xbccd1cce	-0.02503815
171	0x3be11271	0.0068686535
172	0x3c3b091a	0.011415744
173	0x3cbef7d1	0.023311527
174	0x3d1c278d	0.038123656
175	0xbb346986	-0.0027528717
176	0x3d17da06	0.037073158
177	0xbcb72a33	-0.02235899
178	0xbc83bfeb	-0.016082725
179	0x3ca9a239	0.020707237
180	0x3b42d13c	0.0029726764
181	0x3c76e982	0.015070321
182	0xbca2f618	-0.019892737
183	0xbbf29d5e	-0.0074040135
184	0xb9c22680	-0.00037031248
185	0xbc1f5651	-0.009725169
186	0x3d202d7e	0.039105885
187	0x3bc88e6c	0.0061204936
188	0x3d5ca68f	0.05386978
189	0xb9d15b85	-0.00039931774
190	0xbca994f3	-0.020700907
191	0xbc598db9	-0.013278418
192	0xbd6cbb3a	-0.05779574
193	0x3d10d5ea	0.035360254
194	0x3d502311	0.050814692
195	0x3b65ec10	0.0035083331
196	0xbae3076e	-0.001732094
197	0x3ce307da	0.027713705
198	0xbce2e942	-0.027699117
199	0xbce0d53f	-0.027445434
200	0xbd134a2b	-0.035959404
201	0x3c55bb4a	0.0130451415
202	0x3a996a8c	0.0011704727
203	0xbd293d21	-0.041318063
204	0xbc93e169	-0.01805182
205	0xbb33172b	-0.0027327042
206	0x3cd35601	0.025797846
207	0xbcf911b6	-0.030403953
208	0x3cb51360	0.022103965
209	0xbc05f360	-0.008175701
210	0x3b932ad6	0.0044911904
211	0xbd793d9a	-0.060849763
212	0xbca6e2fb	-0.020371905
213	0x3d3ea91b	0.04654799
214	0x3b890189	0.004181091
215	0x3c70cd93	0.01469745
216	0xbbcc2ad8	-0.0062306933
217	0x3d035668	0.032064825
218	0xbd1c7a71	-0.038202707
219	0x3d28d4b5	0.04121848
220	0x3ba8be2f	0.005149625
221	0x3d5dc001	0.054138187
222	0x3c8e337a	0.01735853
223	0xbca739fa	-0.020413388
224	0x3b98ccde	0.004663094
225	0xbbaf5c92	-0.0053516114
226	0x3bf36607	0.007427934
227	0x3ca2f1b0	0.019890636
228	0x3c15698f	0.009119405
229	0xb9212734	-0.00015368761
230	0x3c5f539a	0.013630772
231	0x3c9e92c2	0.019357089
232	0xbc8b2b8c	-0.016988538
233	0x3c67e0fa	0.01415276
234	0x3c215787	0.009847528
235	0xbc4ed1ca	-0.01262326
236	0xbc52bac9	-0.012861916
237	0xbc917546	-0.017756116
238	0x3cca9a37	0.024731738
239	0xbc36d3e2	-0.011158915
240	0x3cb3ed29	0.021963673
241	0xbcd4e9dd	-0.025990421
242	0x3d42832d	0.04748838
243	0xbc7ad48e	-0.015309466
244	0x3c641309	0.013920554
245	0xbce53d65	-0.027983377
246	0x3d21497b	0.039376717
247	0x3b45b950	0.003017027
248	0x3c82b970	0.015957564
249	0xbc0dbba5	-0.008650695
250	0xbbdb0511	-0.0066839536
251	0xbd569a35	-0.052393157
252	0xbc36ed38	-0.011164956
253	0x3cccfd75	0.025023201
254	0xbc883257	-0.016625566
255	0xbcfe937f	-0.031076191

1.bias f4 [256]
0	0xbd195048	-0.037430078
1	0xbe0e8612	-0.13918331
2	0x3ce01dff	0.027358053
3	0xbc580f6a	-0.013187269
4	0xbe1afe1b	-0.15135996
5	0xbe1460d0	-0.14490056
6	0xbc6ef0ba	-0.014583761
7	0xbdd8da40	-0.10588503
8	0xbd86a731	-0.06574858
9	0xbd6b90de	-0.057511203
10	0xbdef8df3	-0.116969965
11	0xbdbcafcc	-0.09213218
12	0xbe304fa5	-0.17217882
13	0xbcfead83	-0.031088596
14	0x3d5c75c6	0.053823255
15	0xbd8cee8e	-0.06881438
16	0xbd89a54f	-0.06720983
17	0xbdb2b3fc	-0.087257355
18	0xbe2eb84f	-0.17062496
19	0xbddc3ffc	-0.107543916
20	0xbd7ba0bb	-0.06143258
21	0xbcd8bd33	-0.026457405
22	0xbe165cab	-0.14683788
23	0xbdd63d93	-0.10460963
24	0xbd413f5f	-0.047179576
25	0x3cebf8ea	0.028805215
26	0xbd3f2a0f	-0.04667097
27	0xbe1f3c10	-0.15550256
28	0xbd73d334	-0.05952759
29	0xbd5ad8ff	-0.0534296
30	0xbe0c257e	-0.13686177
31	0xbe15a287	-0.1461278
32	0xbe2367e2	-0.15957597
33	0x3d812e0d	0.063076116
34	0xbd35c059	-0.04437289
35	0xbd0c8ff2	-0.034316964
36	0xbdb58d54	-0.08864847
37	0xbdca400c	-0.09875497
38	0x3afcf0c8	0.0019297833
39	0xbd2d9737	-0.042380538
40	0xbe492d9f	-0.1964631
41	0xbe4f689a	-0.20254746
42	0x3d079734	0.033103183
43	0xbd5bd57c	-0.05367039
44	0xbc979fdb	-0.018508842
45	0xbe01b691	-0.126673
46	0xbc999d18	-0.018751666
47	0xbdd537ae	-0.10411011
48	0xbd8e9f6d	-0.06964002
49	0xbd81b973	-0.063342
50	0xbdf4a786	-0.11946015
51	0xbd617156	-0.055039726
52	0xbcfec015	-0.031097451
53	0xbd918d6c	-0.07107052
54	0xbd994b0a	-0.07485016
55	0x3c9580be	0.018249866
56	0x3d7535db	0.059865814
57	0xbcdda8b9	-0.027057992
58	0xbe187de7	-0.14891778
59	0xbda4b723	-0.08042743
60	0xbd803d81	-0.06261731
61	0xbe4c9fe0	-0.19982862
62	0xbd7fa4e0	-0.062413096
63	0xbd89a1a7	-0.06720286
64	0x3b9704e6	0.0046087382
65	0xbd895a54	-0.06706682
66	0xbe6879d9	-0.22702731
67	0xbdb14e96	-0.08657567
68	0xbd982999	-0.07429809
69	0x3e06d3dd	0.13166757
70	0xbd933275	-0.07187358
71	0xbdb82e3e	-0.08993195
72	0xbddfc08a	-0.10925396
73	0xbdc3a938	-0.0955376
74	0x3d50cf6f	0.050979074
75	0xbd81a88c	-0.06330976
76	0xbdf0acbc	-0.117516965
77	0xbd51332d	-0.051074196
78	0xbdc18e49	-0.09450967
79	0xbdb99727	-0.09062033
80	0xbd3c02fd	-0.045901287
81	0xbd4a28ac	-0.049355194
82	0xbd77f310	-0.060534537
83	0xbdb16bea	-0.08663161
84	0xbd5c98f9	-0.053856824
85	0xbdf37cc8	-0.118890345
86	0xbdf9cb83	-0.1219702
87	0x3bc95821	0.006144539
88	0xbe40d37d	-0.18830676
89	0xbdbf61d6	-0.093448326
90	0xbdd43972	-0.10362519
91	0xbcfe1258	-0.031014606
92	0xbdae6e59	-0.08517141
93	0xbc4de5f3	-0.012567031
94	0xbdcd173a	-0.10014196
95	0xbe1f7d37	-0.1557511
96	0xbd88d4af	-0.06681191
97	0x3d3177a8	0.043327004
98	0x3b9e5cc5	0.0048328363
99	0xbe3f60fa	-0.18689337
100	0xbdabebfb	-0.08394619
101	0x3d864f02	0.06558038
102	0xbd1315bc	-0.0359094
103	0xbd14e546	-0.036351465
104	0xbc6e105f	-0.01453027
105	0xbe154509	-0.14577116
106	0xbc4efa24	-0.01263288
107	0x3d754bba	0.05988667
108	0xbe2a2603	-0.16616063
109	0xbdd43a46	-0.10362677
110	0xbd80eed8	-0.06295556
111	0x3c8b864e	0.017031815
112	0xbd67b2d5	-0.056567032
113	0xbe0b888f	-0.13626312
114	0xbd5197ad	-0.05117004
115	0xbd6e599b	-0.058190923
116	0xbd5df20e	-0.05418592
117	0xbdb0ef96	-0.086394474
118	0xbd3a4eaf	-0.045485195
119	0xbd53c389	-0.05170015
120	0x3d208bd4	0.03919585
121	0xbc62ddc3	-0.013846817
122	0xbd48243a	-0.048862673
123	0xbd26d23d	-0.040727843
124	0xbc285daa	-0.0102762375
125	0xbe1d69bb	-0.15372364
126	0xbd9d562a	-0.0768245
127	0xbe232d13	-0.15935163
128	0xbe2babf1	-0.16764809
129	0x3cf006b6	0.029300075
130	0x3d262dbb	0.040570956
131	0xbd780a06	-0.060556434
132	0xbdd40823	-0.103531145
133	0xbd733976	-0.05938097
134	0x3abe6502	0.0014525952
135	0xbddbeeb1	-0.10738886
136	0xbdc3c3e8	-0.095588505
137	0x3d60fbef	0.054927763
138	0x3cba92f2	0.022775147
139	0xbd478b6b	-0.048716944
140	0x3c92ddc9	0.017928021
141	0xbdac26f7	-0.084058695
142	0xbd9a5cbc	-0.07537219
143	0xbbccbbbb	-0.006247965
144	0xbdd5b5cb	-0.10435065
145	0xbd803262	-0.0625961
146	0xbe080f84	-0.13287169
147	0xbe09679b	-0.13418429
148	0xbd40b183	-0.04704429
149	0x3934d81b	0.00017246643
150	0xbdc3d2fa	-0.09561725
151	0xbd881163	-0.06643941
152	0xbd31107a	-0.043228604
153	0xbd2751bc	-0.040849432
154	0xbe28610a	-0.16443267
155	0xbd58d925	-0.05294146
156	0x3c834fff	0.016029356
157	0xbe3833ae	-0.17988464
158	0xbd742308	-0.05960372
159	0xbd76bc6f	-0.060238298
160	0xbcc6d842	-0.024273042
161	0xbdd91f79	-0.10601706
162	0xbe23e47e	-0.16005132
163	0xbe1e59d0	-0.15463948
164	0xbe212353	-0.15736131
165	0xbd6bcc2b	-0.057567757
166	0xbd98fc88	-0.074700415
167	0xbbb9362b	-0.0056522093
168	0xbcde7870	-0.027157038
169	0x3d91807f	0.07104587
170	0x3bf35bb5	0.007426704
171	0x3d26f7f7	0.04076382
172	0xbd470193	-0.048585486
173	0xbdcb1ba4	-0.099173814
174	0x3c1a1b53	0.009405929
175	0xbcae7f15	-0.021300832
176	0xbe3b3de9	-0.18285336
177	0xbe26214a	-0.16223636
178	0x3cee98e0	0.02912563
179	0xbe325226	-0.1741415
180	0xbdca1134	-0.098665625
181	0xbc981a1b	-0.018567136
182	0xbd4c9534	-0.04994698
183	0xbd806250	-0.062687516
184	0xbd4c4b46	-0.049876474
185	0xbe08db36	-0.13364872
186	0xbde28b58	-0.11061734
187	0xbd95e3dd	-0.07318852
188	0xbe1c4aef	-0.1526296
189	0xbd957a0b	-0.072986685
190	0xbd77d0c1	-0.060501818
191	0xbe2c8902	-0.1684914
192	0x3bfb3f6e	0.0076674735
193	0xbd3a42f2	-0.045474
194	0xbc3f1a38	-0.011663966
195	0xbd2ed93b	-0.042687636
196	0xbdb40157	-0.08789318
197	0xbd80042f	-0.06250798
198	0xbd3ca554	-0.046056107
199	0xbdaa18db	-0.08305522
200	0x3c77a494	0.015114922
201	0x3db14ed5	0.08657614
202	0xbdaeccad	-0.085351326
203	0xbd1fd5e5	-0.039022345
204	0xbdc7a702	-0.09748651
205	0xbd72850d	-0.05920892
206	0xbe146ca5	-0.1449457
207	0xbd11b3b1	-0.035571758
208	0xbdc8d7d9	-0.09806795
209	0x3df00bc2	0.117209926
210	0xbde8ce93	-0.11367526
211	0xbda6d6aa	-0.08146413
212	0x3bdd777b	0.006758628
213	0xbdfcad90	-0.12337792
214	0xbc2dd4f4	-0.010609854
215	0xbd381940	-0.044945955
216	0x3c88770b	0.016658327
217	0xbe48cfb1	-0.19610478
218	0xbda706bf	-0.081555836
219	0x3c5e0c59	0.013552749
220	0xbd7a2fc1	-0.061080698
221	0xbe7eef92	-0.24896076
222	0xbcb91ac2	-0.022595767
223	0x3bd9bc86	0.006644788
224	0xbc1e1ae6	-0.009649968
225	0xbbf9837c	-0.007614551
226	0xbde41af0	-0.111379504
227	0xbdba025d	-0.09082482
228	0xbd8f0f89	-0.06985385
229	0xbd0b5de2	-0.03402508
230	0x3d9fda9e	0.0780537
231	0x3d852eef	0.065030925
232	0xbce35665	-0.027751157
233	0xbd88ee73	-0.066861056
234	0xbd8f99d6	-0.07011764
235	0x3b113413	0.0022156283
236	0xbe03588c	-0.12826747
237	0x3d322dfe	0.043500893
238	0xbdc80c2e	-0.09767948
239	0xbd79e0c7	-0.06100538
240	0xbe30d897	-0.17270122
241	0xbdbe6744	-0.0929704
242	0xbdb285db	-0.08716937
243	0x3d6e29f9	0.058145497
244	0x3c92f828	0.017940596
245	0xbd653b5f	-0.055964824
246	0xbd917b5d	-0.07103608
247	0xbd0a48d9	-0.03376088
248	0xbcebc3c3	-0.02877987
249	0x3c21ebe4	0.009882901
250	0xbd947e18	-0.07250613
251	0xbd1dd87d	-0.038536537
252	0xbd27a96c	-0.040933058
253	0xbd4037d1	-0.04692823
254	0xbd7718ca	-0.060326375
255	0xbd8e25c6	-0.069407985

3.weight f4 [16, 256]
0	0x3c90c9da	0.017674375
1	0xbd107fcc	-0.035278127
2	0xbe3cee86	-0.18450364
3	0x3c8ca073	0.017166352
4	0xbd63117e	-0.055436604
5	0x3ca7cc09	0.020483034
6	0xbd6bc9da	-0.057565548
7	0xbcf5b7c8	-0.02999486
8	0xbbc2d7aa	-0.0059461193
9	0x3c2de36a	0.010613302
10	0x3cbdd551	0.023173006
11	0xbd1fc751	-0.039008442
12	0xbd9e54a2	-0.07730986
13	0xbdeef217	-0.11667269
14	0xbcd4b36d	-0.025964463
15	0x3cd74db3	0.026282167
16	0xbcf2c37d	-0.029634232
17	0xbcefd72f	-0.029277412
18	0xbe26cfd3	-0.16290216
19	0xbb8d71d8	-0.0043165497
20	0xbbfc1a96	-0.007693599
21	0xbab114ef	-0.0013510267
22	0xbdf024ff	-0.117258064
23	0xbdc18329	-0.09448845
24	0xbe83d4d8	-0.25748324
25	0x3d32d901	0.043663982
26	0x3b3d56be	0.0028890814
27	0xbcf09003	-0.029365545
28	0xbb11189f	-0.002213992
29	0x3c2b4858	0.01045426
30	0x3c9e44ff	0.01932001
31	0xbdbd6102	-0.092470184
32	0xbd614df5	-0.055005986
33	0x3d91354d	0.070902444
34	0x3d95089f	0.07277035
35	0x3c548f02	0.012973549
36	0xbd780dbe	-0.06055998
37	0xbb72eefb	-0.0037068713
38	0x3b248b75	0.0025107537
39	0xbd1362de	-0.03598296
40	0xbe6030be	-0.21893594
41	0x3d20205a	0.039093353
42	0xbc1dc233	-0.00962882
43	0x3c34d377	0.011036745
44	0x3d0db667	0.03459778
45	0xbdb0ba93	-0.08629336
46	0xbd353115	-0.04423626
47	0xbd3bb919	-0.04583082
48	0xbc90fe18	-0.017699286
49	0x3ca70896	0.020389836
50	0xbd638361	-0.055545215
51	0xbe1b6251	-0.15174223
52	0x3ac2cb2d	0.0014861576
53	0xbc796b65	-0.015223359
54	0x3d0492ea	0.03236667
55	0x3d965ff4	0.0734252
56	0xbe08704c	-0.13324088
57	0xbd2ba84f	-0.04190856
58	0x3d8448d9	0.06459207
59	0x3bfce7ea	0.007718076
60	0x3d2ac409	0.04169086
61	0xbdf25020	-0.11831689
62	0xbe36dc46	-0.17857465
63	0xbd39fd42	-0.04540754
64	0xbdccf6ae	-0.10007988
65	0x3cdaa3c3	0.026689416
66	0x3d559f50	0.052153885
67	0x3c5c3d66	0.013442373
68	0x3da37686	0.07981591
69	0xbe47bc4a	-0.1950542
70	0xbdb0b32d	-0.08627925
71	0x3ae0d48c	0.0017153188
72	0xbd043555	-0.032277424
73	0x3cee2d94	0.029074468
74	0xbd601d87	-0.05471566
75	0xbc7f7b71	-0.015593396
76	0xbc20beec	-0.009811144
77	0xbcd9796f	-0.026547162
78	0xbde58d19	-0.11208553
79	0x3c0ccda5	0.008593951
80	0x3bea54fd	0.0071512447
81	0xbd93453c	-0.0719094
82	0x3d726fd4	0.05918868
83	0x3c3ffe62	0.011718364
84	0xbd11a25e	-0.035555236
85	0x3c430739	0.0119035775
86	0xbdb3bf70	-0.08776748
87	0xbdd47b5c	-0.103750914
88	0xbdd7464b	-0.10511454
89	0x3c515b24	0.012778077
90	0x3d0c7c5d	0.03429829
91	0xbe2dca4a	-0.16971698
92	0x3e009f41	0.1256075
93	0xbe42c4ed	-0.19020434
94	0x3d231253	0.039812397
95	0xbd814ea6	-0.06313829
96	0xbcb274ea	-0.021784265
97	0x3dd7a09c	0.10528681
98	0xbc942f19	-0.018088864
99	0x3d7faaa0	0.06241858
100	0xbc90d1db	-0.017678192
101	0xbc1522c6	-0.009102529
102	0xbd65fb91	-0.056148116
103	0xbd305f4c	-0.043059632
104	0xbd88e0d4	-0.066835076
105	0xbd6af432	-0.05736179
106	0x3d0b7fd9	0.034057472
107	0x3dcb05e0	0.0991323
108	0xbe230142	-0.15918449
109	0x3d88235e	0.06647371
110	0x3db65597	0.08903044
111	0xbc91ff78	-0.017822012
112	0xbb0bbed9	-0.002132347
113	0xbbb10eb8	-0.005403366
114	0x3ba1aab8	0.0049336813
115	0xbce2efb0	-0.027702183
116	0x3cb46694	0.02202157
117	0xbbdf0b26	-0.006806749
118	0xbe024857	-0.12722908
119	0xbb48f30b	-0.0030662443
120	0xbe2fea6f	-0.17179273
121	0xbdb71f1d	-0.08941481
122	0xbe0d7f6f	-0.13818143
123	0xbc5b83f8	-0.013398163
124	0x3c4a9b10	0.012366071
125	0x3ce44be3	0.027868217
126	0x3bc57c9c	0.0060268175
127	0xbd84531d	-0.06461165
128	0xbd533b79	-0.05157039
129	0x3ca8e027	0.020614697
130	0x3ca1619b	0.019699862
131	0xbd53665a	-0.051611282
132	0x3ab1957f	0.0013548582
133	0x3ccd9912	0.025097404
134	0xbc85f317	-0.016351266
135	0xbe26ae2b	-0.16277377
136	0xbd155ca8	-0.036465317
137	0x3d350956	0.044198357
138	0x3e1276c6	0.14303121
139	0x3d81a9fb	0.06331249
140	0xbb3917fc	-0.0028243056
141	0xbceac20b	-0.02865698
142	0xbd555815	-0.052085955
143	0xbce451e0	-0.027871072
144	0x3d47bc55	0.04876359
145	0xbe45e376	-0.1932505
146	0xbd946935	-0.07246629
147	0x3d2fda23	0.04293264
148	0xbe0cf8d0	-0.1376679
149	0xbc5397d9	-0.012914621
150	0x3c598ee4	0.013278697
151	0xbbf132a9	-0.0073607755
152	0x3bd27ffa	0.0064239474
153	0xbca6afba	-0.020347465
154	0xbc35a1f9	-0.011085981
155	0x3dd2397b	0.1026487
156	0x3d61f2fa	0.05516336
157	0xbe127454	-0.14302188
158	0xbd4596bf	-0.048239466
159	0xbdf63c21	-0.120231874
160	0xbe5ca340	-0.2154665
161	0xbc72f11c	-0.014827993
162	0xbd85371f	-0.06504654
163	0xbd4b398a	-0.04961542
164	0xbe0aa8de	-0.1354098
165	0x3a236015	0.0006232274
166	0x3c5c8558	0.013459526
167	0x3dfb32c2	0.12265541
168	0x3b3be17f	0.0028668342
169	0x3e417079	0.18890561
170	0x3d3cfbe7	0.04613867
171	0xbd127c0e	-0.03576284
172	0xbd8830ba	-0.06649919
173	0x3b74eacb	0.0037371393
174	0xbcb2378a	-0.021754999
175	0x3d813e8a	0.063107565
176	0x3d9a64df	0.07538771
177	0xbe1e7bb0	-0.1547687
178	0x3d0f4539	0.034978125
179	0xbdbfa67b	-0.093579255
180	0xbd8f83ff	-0.07007598
181	0xbc6a32e6	-0.014294362
182	0x3d0be8ff	0.03415775
183	0xbd3ab938	-0.045586795
184	0x3b793a5c	0.003802917
185	0x3b7e56ee	0.0038809138
186	0xbb9b92e2	-0.0047477344
187	0xbd2aba3d	-0.041681517
188	0xbe10a13a	-0.14124003
189	0x3c49ae5e	0.012309639
190	0x3d51261f	0.051061746
191	0xbcec5d24	-0.028853007
192	0x3c8684c0	0.016420722
193	0xbd24d8df	-0.040245887
194	0x3d019b2f	0.031642135
195	0xbc13d43c	-0.009022769
196	0xbb73de42	-0.0037211333
197	0xbc95aaa9	-0.018269854
198	0xbd390386	-0.045169376
199	0xbd661628	-0.056173474
200	0xbce67234	-0.028130628
201	0x3df0481e	0.11732505
202	0x3d0f01c5	0.034913797
203	0xbc5d7a82	-0.013517978
204	0xbdb862c2	-0.090032116
205	0x3d041578	0.032247037
206	0x3d340eb7	0.043959346
207	0xbe01acad	-0.12663527
208	0xbc5f96ab	-0.013646762
209	0x3d4775fa	0.048696496
210	0xbd449c83	-0.048000824
211	0xbdb69900	-0.08915901
212	0x3d089cb5	0.033352572
213	0xbdacc80e	-0.08436595
214	0x3cf9f6bc	0.03051316
215	0x3d0555a3	0.032552373
216	0xbcd44630	-0.025912374
217	0xbda8f939	-0.082506604
218	0x3cde64bc	0.027147643
219	0x3d190201	0.037355427
220	0x3cdc51b8	0.026894435
221	0xbd946aa6	-0.07246904
222	0x3c23fc73	0.010008919
223	0xbd95a4c9	-0.07306821
224	0x3d0f8f16	0.035048567
225	0x3d08cf12	0.033400603
226	0x3bd2636f	0.006420545
227	0xbe11e25f	-0.1424651
228	0x3c927657	0.017878694
229	0xbc25b450	-0.010113791
230	0x3d9904af	0.074715964
231	0x3dbb37ce	0.09141503
232	0xbd1c2a8e	-0.03812652
233	0xbe47e7f8	-0.19522083
234	0x3ba5f3e6	0.0050644754
235	0x3bb33d77	0.0054699737
236	0xbcfe5b67	-0.031049443
237	0xbd325d4c	-0.043546006
238	0xbd325707	-0.043540027
239	0xbc7c8cb2	-0.015414404
240	0x3ab11670	0.0013510715
241	0xbcec4878	-0.02884315
242	0xbd46a2c2	-0.04849506
243	0x3d09c0f8	0.033631295
244	0x3df64325	0.120245256
245	0xbe6082a8	-0.21924841
246	0xbc45beb9	-0.012069398
247	0xbdd622cd	-0.104558565
248	0xbbbbc92c	-0.0057307687
249	0xbd172a3f	-0.036905523
250	0xbcd4ffee	-0.026000943
251	0x3d42f21e	0.047594182
252	0xbb000569	-0.0019534475
253	0xbdb309c5	-0.08742098
254	0x3a8a9ca6	0.0010575249
255	0xbc82ea2a	-0.015980799

3.bias f4 [16]
0	0xbda1e7bc	-0.07905528
1	0x3b7a8922	0.003822871
2	0xbe0f6fb5	-0.14007457
3	0xbdd9b17e	-0.10629557
4	0xbe1e63eb	-0.15467803
5	0xbd7f72c0	-0.062365294
6	0xbdd4b6b0	-0.103864074
7	0xbe560d10	-0.2090342
8	0x3d3cd84e	0.04610472
9	0xba77259e	-0.00094279076
10	0x3e903f72	0.28173405
11	0xbe1ec072	-0.155031
12	0xbd42e140	-0.047578096
13	0xbd9dfced	-0.077142574
14	0xbe340048	-0.17578232
15	0x3e296d55	0.16545613

5.weight f4 [1, 16]
0	0x3d598f72	0.053115316
1	0x3dcbe2d7	0.09955376
2	0xbd8ec827	-0.0697177
3	0x3da024a5	0.078194894
4	0xbe2919a8	-0.16513693
5	0x3da866fa	0.08222766
6	0xbd6763d7	-0.0564917
7	0xbd7dd704	-0.061972633
8	0x3d7f65aa	0.062352814
9	0x3d9e1c54	0.07720247
10	0xbdc7ff4b	-0.0976549
11	0x3d8a1ed2	0.0674416
12	0xbc864e30	-0.016394705
13	0xbd1fd6d6	-0.039023243
14	0xbd883598	-0.06650847
15	0xbd8e2670	-0.06940925
